Project-3.Reinforcement_Learning/RL_Agent_&_Snake_Game/model/model.pth (torch, 16787 bytes, 4 tensors)

linear1.weight f4 [256, 11]
0.27434406 -0.060967863 -0.19123802 -0.07288354 0.15924072 0.19618446 -0.09315218 0.19611503
-0.055071585 -0.12836416 0.2145789 0.61594236 -0.26271883 -0.16748519 -0.27638263 0.03270227
0.06917089 0.16844203 0.38854748 0.17231539 0.051832177 -0.024511006 0.3779924 -0.1912506
0.2260921 -0.037822787 0.113355935 -0.05857206 0.10899173 0.26319247 0.10918273 0.19098757
0.099684075 -0.10376047 -0.1218551 0.1529916 -0.23033287 0.4626463 -0.029855626 0.33663127
-0.44483358 -0.09060698 -0.6747588 -0.045241524 0.44433224 0.44538566 -0.55854297 0.06563946
-0.19651645 -0.23980813 -0.09963108 0.08754936 0.2884264 0.044588182 0.26035053 -0.25460684
-0.039892297 -0.027981773 -0.3061207 -0.17071027 0.24822259 0.02187846 0.442745 0.3018893
-0.12581703 -0.34084997 0.22755282 0.4702088 0.04891974 0.103468515 -0.25183558 -0.047365174
-0.1414131 0.013778645 0.24828246 0.22079942 0.15975356 0.20793992 0.11713435 0.11544591
-0.11220625 -0.27008787 0.07923816 -0.28910348 0.21496734 -0.24045448 -0.2757773 -0.25970343
0.5146232 0.60213095 -0.032290306 -0.15976422 0.14445132 0.1676396 -0.025638793 0.3369082
0.026604054 0.2786747 0.24250421 0.42875418 0.3954903 0.40290958 -0.16109225 -0.059171334
-0.15548629 0.02351248 0.21186152 0.21784453 0.14942613 0.27280632 0.64600784 -0.6510893
0.14445998 0.09259683 -0.16942538 -0.089110576 -0.41202292 -0.21889172 0.3476134 -0.0009147986
0.25778544 0.032948337 0.19355443 -0.3317732 0.021519987 0.020706961 -0.023086404 0.0020212382
0.21639588 0.17987172 -0.5183375 -0.50484806 0.033743 0.041107096 0.09517598 -0.195499
0.008501716 -0.051329076 -0.08745819 -0.03334164 -0.11716153 0.03076361 -0.07736254 -0.13003151
0.058216467 0.17298098 0.14991543 -0.028734773 -0.297869 0.05721569 -0.24841735 -0.23641226
-0.26798177 -0.12913819 0.58874387 -0.044024028 0.41717726 -0.104802 -0.06552506 0.06661854
-0.10576144 0.3914279 0.4177225 0.19503616 0.32874864 -0.31856066 0.19619033 -0.20149979
-0.41497803 -0.2617204 -0.17669207 0.105235875 -0.27491903 -0.40850687 -0.2466327 0.30967376
0.44997278 0.5460105 -0.32434517 -0.2675421 -0.002564666 -0.1956474 0.035425145 0.25860372
0.3072667 0.2247761 -0.026495213 -0.029467106 -0.27812082 0.079357624 0.26973146 -0.24380928
0.2069866 -0.21879342 -0.2884457 -0.20535597 -0.20470425 -0.29704744 -0.13862303 0.094219044
-0.16921027 0.36761194 0.17808807 -0.19977227 -0.29084846 0.14423291 0.22283383 -0.37804553
-0.314994 0.4484096 0.29842094 0.0033361614 -0.34336597 0.16522977 0.26983428 0.41012153
0.398633 -0.06427057 -0.19783048 -0.2931012 -0.17772557 -0.1792534 0.26046565 0.23574397
-0.10021781 -0.19552669 0.110670604 -0.20765638 -0.34124503 0.35765392 -0.08466617 0.45122463
0.42793757 -0.43711933 0.10187127 0.32670847 0.19984448 0.02932367 0.105365865 -0.18288207
0.20814621 0.14118712 0.34177867 0.26984388 -0.456169 -0.30285954 -0.06786491 0.28538
-0.06506563 -0.15842924 0.25697982 -0.32369712 -0.24205749 0.3256488 -0.10873039 -0.14401285
00000000: d376 8c3e 70b9 79bd e6d3 43be f743 95bd
00000010: 0010 233e 94e4 483e 92c6 bebd 61d2 483e
00000020: be92 61bd e571 03be 92ba 5b3e 66ae 1d3f
00000030: 1583 86be 3d81 2bbe 0682 8dbe d1f2 053d
00000040: 78a9 8d3d 117c 2c3e b2ef c63e 7273 303e
00000050: fa4d 543d 4ecb c8bc 3888 c13e 33d7 43be
00000060: b084 673e 11ec 1abd 2827 e83d 42e9 6fbd
00000070: 0e37 df3d 2ac1 863e 329b df3d 3f92 433e
00000080: 2a27 cc3d 5f80 d4bd 2b8f f9bd d4a9 1c3e
00000090: 61dc 6bbe fadf ec3e c993 f4bc ef5a ac3e
000000a0: 3ac1 e3be 2790 b9bd febc 2cbf 2d4f 39bd
000000b0: 847f e33e 9709 e43e acfc 0ebf fb6d 863d
000000c0: 9c3b 49be 4390 75be 610b ccbd 144d b33d
000000d0: a0ac 933e 19a2 363d aa4c 853e d45b 82be
000000e0: 1b66 23bd 083a e5bc dabb 9cbe acce 2ebe
000000f0: 102e 7e3e 753a b33c 79af e23e 3c91 9a3e
00000100: 2ed6 00be e383 aebe 9b03 693e 35bf f03e
00000110: 1160 483d 4de7 d33d 98f0 80be fc01 42bd
00000120: 98ce 10be d3bf 613c c23d 7e3e 3e19 623e
00000130: 7096 233e 34ee 543e 22e4 ef3d e86e ec3d
00000140: 64cc e5bd f548 8abe 9e47 a23d 5f05 94be
00000150: 6620 5c3e b339 76be af32 8dbe d9f7 84be
00000160: 59be 033f 4125 1a3f d742 04bd 3b99 23be
00000170: 0ceb 133e b7a9 2b3e 7208 d2bc 3b7f ac3e
00000180: bff0 d93c 73ae 8e3e 0653 783e ab85 db3e
00000190: b47d ca3e 2a4a ce3e 5ef5 24be a45d 72bd
000001a0: cc37 1fbe 3f9d c03c 3af2 583e a312 5f3e
000001b0: 2a03 193e 45ad 8b3e c560 253f caad 26bf
000001c0: 51ed 133e 68a3 bd3d d97d 2dbe 9b7f b6bd
000001d0: abf4 d2be 2725 60be 62fa b13e 18cf 6fba
000001e0: 74fc 833e d6f4 063d 2233 463e 2dde a9be
000001f0: af4a b03c a5a1 a93c b31f bdbc c076 043b
00000200: e296 5d3e 4b30 383e c4b1 04bf b93d 01bf
00000210: 1a36 0a3d ea5f 283d a0eb c23d e430 48be
00000220: c84a 0b3c 703e 52bd 481d b3bd 3e91 08bd
00000230: 62f2 efbd f703 fc3c 4070 9ebd fb26 05be
00000240: 6474 6e3d ed21 313e 6e83 193e 3065 ebbc
00000250: 4982 98be 005b 6a3d 1e61 7ebe 0e16 72be
00000260: e834 89be cd3c 04be ebb7 163f 8a52 34bd
00000270: 4298 d53e 6ea2 d6bd 0132 86bd 4d6f 883d
00000280: 7499 d8bd 3d69 c83e b9df d53e 8fb7 473e
00000290: be51 a83e 621a a3be 1ee6 483e f655 4ebe
000002a0: 0078 d4be 3700 86be c4ee 34be e885 d73d
000002b0: 30c2 8cbe d027 d1be 488d 7cbe 8f8d 9e3e
000002c0: d562 e63e 58c7 0b3f 9210 a6be 47fb 88be
000002d0: f513 28bb cb57 48be f519 113d b567 843e
000002e0: 1052 9d3e b52b 663e 7d0c d9bc 0065 f1bc
000002f0: da65 8ebe 4086 a23d 3e1a 8a3e 24a9 79be
00000300: 4cf4 533e 620b 60be 28af 93be d648 52be
00000310: fe9d 51be 9a16 98be 32f3 0dbe eaf5 c03d
00000320: 7545 2dbe a237 bc3e b85c 363e 1a91 4cbe
00000330: 17ea 94be cbb1 133e 8d2e 643e 2f8f c1be
00000340: e546 a1be f195 e53e a1ca 983e 80a3 5a3b
00000350: aacd afbe fe31 293e b827 8a3e 73fb d13e
00000360: a019 cc3e 4aa0 83bd 1394 4abe 5c11 96be
00000370: b1fd 35be 348e 37be c15b 853e de66 713e
00000380: ff3e cdbd 2638 48be 45a7 e23d e0a3 54be
00000390: abb7 aebe 6a1e b73e 7565 adbd ea06 e73e
000003a0: a21a db3e 1bce dfbe e2a1 d03d 5546 a73e
000003b0: 08a4 4c3e 3138 f03c 0fca d73d 7045 3bbe
000003c0: 4824 553e 5b93 103e 9dfd ae3e fa28 8a3e
000003d0: fc8e e9be 6810 9bbe c2fc 8abd 541d 923e
000003e0: 2141 85bd 463b 22be dc92 833e a1bb a5be
000003f0: ebdd 77be 71bb a63e 0aae debd 1b78 13be

linear1.bias f4 [256]
-0.11845621 -0.12670653 -0.21725151 0.42755675 -0.13501215 -0.1498242 0.039124448 -0.35584736
-0.21317136 -0.06183108 0.12918001 0.2996976 -0.1899774 -0.12403952 -0.27478266 0.092394106
-0.005969817 -0.22984171 -0.007189277 -0.14035352 -0.19106375 -0.19842908 -0.18069677 -0.13556474
-0.14637326 0.1265214 -0.057649396 0.109969914 -0.0015351102 -0.28246158 0.04225371 -0.1429971
-0.005946067 0.03221693 -0.12921396 -0.20420097 -0.1260902 0.024935255 0.08092784 -0.2523055
0.3753174 -0.0827126 -0.22134921 0.08872232 -0.0031614576 -0.13813269 0.04951121 -0.22513618
-0.06752143 -0.20545772 -0.0971144 0.06410633 -0.39297342 -0.003811256 -0.19500144 0.23543584
-0.20076525 -0.14360307 -0.10567335 -0.10849438 -0.08673117 -0.10308096 -0.15237786 -0.11729525
0.42655748 -0.21546899 -0.10236577 0.28478625 -0.1365982 -0.0670425 0.23031564 -0.03623726
0.26900074 -0.079325706 -0.095514305 -0.13992913 -0.16080976 0.16689757 -0.1687826 0.0041902564
0.1818489 0.076829575 -0.053178098 -0.2915075 -0.17596161 -0.0044872626 -0.091708146 -0.03247363
-0.09403517 -0.13321121 0.12156329 -0.08344842 0.23855881 0.22788267 0.3000834 0.019152714
-0.029130772 -0.096189916 0.031086955 -0.0648947 0.22724122 -0.026933402 0.13605519 0.043543648
0.10892415 -0.14397769 -0.24297144 0.09733658 0.04076095 -0.017985752 -0.315977 0.13959534
-0.24776745 -0.22756323 -0.07084527 -0.045590285 -0.18628092 0.044872195 -0.13439585 0.15907602
-0.37205774 -0.0783576 0.30399448 -0.12907097 0.11367213 -0.04237167 -0.21111013 -0.18056737
0.0728062 0.18210219 -0.064304486 0.11796714 -0.27650064 -0.10646837 0.038196314 0.27451736
0.062499374 -0.17201203 -0.36446196 -0.06318547 0.23460701 -0.09916418 0.15514664 -0.005767413
-0.10343325 -0.0750331 -0.052666973 -0.35654175 -0.17115253 0.039256033 -0.25959513 -0.02016355
-0.13053763 0.16957599 -0.008276705 -0.26178527 0.09546307 0.14562091 -0.15892035 -0.02655443
-0.29872352 -0.09339807 -0.22406271 -0.13598369 -0.04184825 -0.22453664 0.11462105 -0.21494114
0.090330206 0.076203704 0.0984292 0.35027424 0.13341802 0.1032547 0.3811687 -0.18315151
0.32899517 -0.24055836 -0.10822724 -0.09719184 0.04625695 0.009142772 -0.12225094 -0.22299924
-0.10076252 -0.1151687 0.26626867 -0.15160586 0.06426153 -0.08446715 -0.020534595 -0.100311145
0.09131595 -0.11339533 -0.08466368 0.040829036 -0.2070126 0.09109615 0.3360399 -0.1266149
-0.32305735 0.3242969 0.34150657 -0.2602856 -0.049630173 -0.21759619 0.021116413 -0.29427266
-0.16425234 0.17962372 -0.20470431 0.056160934 0.4680129 -0.1665238 -0.09928065 -0.27192047
-0.06412803 0.030949036 -0.05935561 0.4472808 -0.032424685 0.0140979225 -0.25562093 0.15012537
0.077022836 0.023401929 0.042721972 -0.009031778 0.16930544 -0.0803023 -0.044416588 -0.22963375
-0.25213075 -0.2963016 0.11678994 -0.14074443 0.12897675 -0.28885344 -0.31509745 0.01490056
-0.04502916 -0.08986708 0.42150077 -0.3064018 -0.13587987 -0.09928165 0.011414269 0.312811
0.07757366 -0.033057883 -0.15730649 -0.004505233 0.013957721 0.1438406 -0.068343304 -0.12729935
00000000: 2b99 f2bd 5bbf 01be 2e77 5ebe b8e8 da3e
00000010: a040 0abe 846b 19be f540 203d a031 b6be
00000020: 9849 5abe 9642 7dbd c447 043e f771 993e
00000030: 6f89 42be 6f08 febd 50b0 8cbe 1f39 bd3d
00000040: 749e c3bb a05b 6bbe 0794 ebbb d5b8 0fbe
00000050: 37a6 43be fe30 4bbe 9308 39be 7cd1 0abe
00000060: dfe2 15be d38e 013e c621 6cbd e837 e13d
00000070: c035 c9ba ce9e 90be 3a12 2d3d d56d 12be
00000080: 3ad7 c2bb e6f5 033d aa50 04be 0f1a 51be
00000090: ca1d 01be 0545 cc3c 7fbd a53d 302e 81be
000000a0: 9a29 c03e 3965 a9bd 5ea9 62be 0cb4 b53d
000000b0: 7530 4fbb a872 0dbe 44cc 4a3d 198a 66be
000000c0: ad48 8abd 8263 52be eae3 c6bd 2e4a 833d
000000d0: d033 c9be 44c6 79bb 75ae 47be 1816 713e
000000e0: 6895 4dbe af0c 13be 456b d8bd 4d32 debd
000000f0: 1da0 b1bd 1c1c d3bd f108 1cbe 7e38 f0bd
00000100: be65 da3e e7a3 5cbe 25a5 d1bd 81cf 913e
00000110: 66e0 0bbe 944d 89bd ddd7 6b3e 856d 14bd
00000120: 77ba 893e 8475 a2bd 019d c3bd 9549 0fbe
00000130: 50ab 24be 32e7 2a3e 59d5 2cbe 6b4e 893b
00000140: 9936 3a3e d358 9d3d 47d1 59bd 7940 95be
00000150: 482f 34be e309 93bb 7bd1 bbbd 1203 05bd
00000160: 8395 c0bd 8568 08be 2df6 f83d 01e7 aabd
00000170: c348 743e 135a 693e 88a4 993e 27e6 9c3c
00000180: a8a3 eebc 38ff c4bd 12aa fe3c 83e7 84bd
00000190: ecb1 683e 70a3 dcbc 0d52 0b3e d35a 323d
000001a0: a013 df3d e36e 13be 81cd 78be 6758 c73d
000001b0: f4f4 263d db56 93bc bdc7 a1be 15f2 0e3e
000001c0: c0b6 7dbe 5606 69be 5317 91bd e1bc 3abd
000001d0: 6dc0 3ebe e8cb 373d 119f 09be d3e4 223e
000001e0: 5a7e bebe f379 a0bd 2aa5 9b3e 2e2b 04be
000001f0: efcc e83d eb8d 2dbd 412d 58be a7e6 38be
00000200: 6b1b 953d ff78 3a3e 12b2 83bd c298 f13d
00000210: 7e91 8dbe 170c dabd bd73 1c3d 8a8d 8c3e
00000220: 58ff 7f3d ec23 30be c29a babe 6267 81bd
00000230: d23c 703e 9716 cbbd c3de 1e3e 91fc bcbb
00000240: d0d4 d3bd f4aa 99bd 53b9 57bd a48c b6be
00000250: 9c42 2fbe efca 203d a7e9 84be 072e a5bc
00000260: a8ab 05be 54a5 2d3e 049b 07bc b808 86be
00000270: 2482 c33d a61d 153e 04bc 22be ad88 d9bc
00000280: 4af2 98be 7d47 bfbd b270 65be 4f3f 0bbe
00000290: 1269 2bbd efec 65be 71be ea3d 8819 5cbe
000002a0: 0bff b83d b010 9c3d 4095 c93d 2557 b33e
000002b0: bc9e 083e 3377 d33d 8b28 c33e 128c 3bbe
000002c0: 0e72 a83e ee54 76be 3ea6 ddbd 840c c7bd
000002d0: ed77 3d3d 91cb 153c b35e fabd ea59 64be
000002e0: 955c cebd 91dd ebbd 5e54 883e 913e 1bbe
000002f0: 8d9b 833d 1dfd acbd 2b38 a8bc ee6f cdbd
00000300: db03 bb3d d03b e8bd 2764 adbd 593c 273d
00000310: 1cfb 53be 9e90 ba3d 6c0d ac3e 56a7 01be
00000320: c667 a5be 3e0a a63e f3d9 ae3e 2744 85be
00000330: 0249 4bbd 89d1 5ebe 54fc ac3c e8aa 96be
00000340: c431 28be 48ef 373e 029e 51be 0209 663d
00000350: 639f ef3e 3785 2abe a753 cbbd 2939 8bbe
00000360: 8e55 83bd d588 fd3c de1e 73bd fd01 e53e
00000370: bfcf 04bd f9fa 663c bfe0 82be 77ba 193e
00000380: 26be 9d3d 67b5 bf3c 3cfd 2e3d 06fa 13bc
00000390: 685e 2d3e 8875 a4bd 2bee 35bd 1c25 6bbe
000003a0: 4817 81be d8b4 97be 902f ef3d 4f1f 10be
000003b0: 7b12 043e 99e4 93be 7454 a1be 7a21 743c
000003c0: 7f70 38bd 3b0c b8bd f3ce d73e b2e0 9cbe
000003d0: 1824 0bbe 2d54 cbbd ea02 3b3c c328 a03e
000003e0: f0de 9e3d b467 07bd f414 21be a2a0 93bb
000003f0: edae 643c f34a 133e 93f7 8bbd c35a 02be

linear2.weight f4 [3, 256]
-0.16173017 -0.34106055 -0.06989234 0.355498 -0.24370845 -0.2722122 -0.043333735 0.012441985
-0.27897918 -0.09347131 -0.21621977 0.27085847 -0.022923656 0.007079507 -0.34755543 0.26955533
-0.2892161 0.020175502 0.22709481 -0.4555193 -0.09591387 -0.17205434 -0.12183363 -0.112632476
-0.20284061 0.32266274 -0.10531247 0.27861342 0.022852596 -0.4116601 0.24459997 -0.0045584217
-0.17851546 0.44624734 -0.47756517 -0.0043463 -0.48932365 0.05232898 0.06838575 -0.008155396
0.24290329 0.27325857 -0.42393282 -0.2956638 0.24205321 -0.18408561 0.34655356 -0.20939852
-0.11754818 -0.2156299 0.016746895 -0.009814742 0.013130484 -0.5088021 0.21464014 0.17098787
-0.14455739 -0.041343752 0.30119577 -0.14994459 0.25165385 -0.5351091 -0.12955415 -0.46200082
0.3478724 -0.13883303 0.06540874 0.25656736 -0.034410886 -0.2961691 -0.06439857 -0.3607338
0.38942188 -0.06587911 0.34818235 -0.09696602 -0.13449948 -0.24766235 -0.14930257 -0.19477515
-0.5520887 0.18989801 0.24143666 -0.58801466 -0.15580422 0.076612845 -0.4073364 -0.3458262
-0.2607033 -0.44979268 0.25945657 -0.1636292 0.23721722 0.2782058 0.18404582 -0.33062008
-0.024053343 -0.472842 -0.018838594 -0.43740562 0.21596926 -0.40388894 -0.028202806 0.053635217
-0.015778117 -0.06098417 -0.5306971 0.21675645 -0.014081132 -0.117743134 0.009267989 -0.10245623
-0.0056438935 -0.059444457 0.24420935 -0.4122792 -0.3849767 -0.38707933 0.17153884 0.073603846
-0.00639037 0.025085608 0.12927842 -0.32373872 -0.07877778 -0.039190665 -0.1706944 -0.47279495
-0.01868757 0.18033622 -0.09826232 -0.13798484 -0.0104843 -0.18299809 0.022055913 0.29068527
-0.13711117 -0.14459954 -0.029042738 -0.090985484 0.43782765 0.007045882 -0.11648322 -0.1823864
-0.071034215 0.24253021 -0.056182116 -0.078821324 0.03722615 -0.23487186 -0.1497454 -0.19883762
-0.0014660782 -0.3431473 -0.42593968 -0.050897535 0.026507152 0.3359799 -0.32929647 0.25570038
-0.25873756 0.20102096 0.09549315 0.24348155 0.25609332 -0.19847354 -0.18558323 -0.11996803
0.23952483 0.3294034 0.27914265 0.2299432 0.27768847 0.013514795 0.27249658 -0.09619585
0.22505654 -0.18126236 0.017991705 -0.17480578 -0.30106986 -0.023134775 -0.108084224 -0.2763524
-0.1435544 -0.028610323 0.21662185 -0.17837939 -0.52607584 -0.24616621 -0.1884022 -0.55083144
-0.13980936 0.04209053 0.31830177 -0.34230676 -0.18914968 -0.062818915 0.4642833 -0.46064124
-0.31698298 0.1957329 0.23771235 -0.10463363 -0.10346305 0.15872557 0.31319472 -0.008058999
-0.16801083 0.11122283 -0.030259632 -0.39393327 0.28705758 0.37438366 -0.34459454 -0.45947775
-0.15495975 0.23323978 -0.3095084 0.33410734 -0.12181524 0.23830774 -0.006995608 -0.43397593
0.18048908 0.41506577 -0.4684011 -0.427379 0.23351398 -0.19838418 0.28515425 0.01679672
-0.621698 -0.3054163 -0.026733126 -0.30303645 0.40558442 0.05279462 -0.04363256 -0.098908864
0.05337836 -0.067177124 0.35889328 -0.07819242 -0.18010624 0.19488245 -0.07987102 0.30949014
-0.23745398 0.029412895 0.22667417 -0.42755482 0.12360289 0.2777084 -0.06910632 -0.20479575
00000000: 989c 25be 7d9f aebe b723 8fbd d503 b63e
00000010: b58e 79be 665f 8bbe b77e 31bd 78d9 4b3c
00000020: 5cd6 8ebe e36d bfbd b768 5dbe f6ad 8a3e
00000030: 64ca bbbc 36fb e73b c9f2 b1be 2803 8a3e
00000040: 2214 94be 1847 a53c 8b8b 683e d339 e9be
00000050: 7e6e c4bd 032f 30be e983 f9bd dbab e6bd
00000060: 73b5 4fbe 0d34 a53e 10ae d7bd 6ba6 8e3e
00000070: 5e35 bb3c 1dc5 d2be 6a78 7a3e d05e 95bb
00000080: c2cc 36be 887a e43e 6c83 f4be 686b 8ebb
00000090: a188 fabe ea56 563d d40d 8c3d 369e 05bc
000000a0: a4bb 783e 8ce8 8b3e b90d d9be 3f61 97be
000000b0: ccdc 773e f080 3cbe 786f b13e 916c 56be
000000c0: 1abd f0bd 16ce 5cbe c930 893c 03ce 20bc
000000d0: 3e21 573c db40 02bf a0ca 5b3e 7217 2f3e
000000e0: da06 14be 1158 29bd 5536 9a3e 138b 19be
000000f0: c6d8 803e e9fc 08bf d8a9 04be 5f8b ecbe
00000100: 551c b23e 3f2a 0ebe 04f5 853d cc5c 833e
00000110: 6ef2 0cbd 7aa3 97be 66e3 83bd 1ab2 b8be
00000120: 4e62 c73e a0eb 86bd f544 b23e 1f96 c6bd
00000130: 3bba 09be 339b 7dbe c6e2 18be 2373 47be
00000140: af55 0dbf a074 423e 2c3b 773e 2188 16bf
00000150: 248b 1fbe 32e7 9c3d 668e d0be 2210 b1be
00000160: e77a 85be 3a4b e6be 7ed7 843e 6a8e 27be
00000170: 12e9 723e fe70 8e3e 8276 3c3e 0947 a9be
00000180: 840b c5bc 5918 f2be 6553 9abc a1f3 dfbe
00000190: 0c27 5d3e 88ca cebe 9209 e7bc 9ab0 5b3d
000001a0: 1c41 81bc 89ca 79bd c4db 07bf 67f5 5d3e
000001b0: 8cb4 66bc 5023 f1bd c3d8 173c 92d4 d1bd
000001c0: 69f0 b8bb 087c 73bd 0412 7a3e 4216 d3be
000001d0: ab1b c5be 432f c6be e1a7 2f3e 9dbd 963d
000001e0: 4f66 d1bb 5580 cd3c 9061 043e 15c1 a5be
000001f0: 3f56 a1bd 6486 20bd 83ca 2ebe 2e12 f2be
00000200: ad16 99bc 0faa 383e c13d c9bd e64b 0dbe
00000210: 57c6 2bbc da63 3bbe 9aae b43c b3d4 943e
00000220: df66 0cbe e711 14be 09eb edbc 9956 babd
00000230: f22a e03e 24e1 e63b c18e eebd 80c3 3abe
00000240: 637a 91bd d759 783e 381f 66bd 136d a1bd
00000250: 737a 183d 4082 70be dc56 19be 179c 4bbe
00000260: 6c29 c0ba 01b1 afbe c414 dabe ef79 50bd
00000270: 8725 d93c 8f05 ac3e 8c99 a8be 29eb 823e
00000280: 4079 84be 70d8 4d3e ea91 c33d 3a53 793e
00000290: aa1e 833e a63c 4bbe 8809 3ebe ccb1 f5bd
000002a0: ff45 753e 90a7 a83e c9eb 8e3e 3b76 6b3e
000002b0: 2f2d 8e3e 296d 5d3c ac84 8b3e 5402 c5bd
000002c0: 3975 663e d79c 39be 5763 933c 4900 33be
000002d0: d425 9abe 2485 bdbc 435b ddbd 107e 8dbe
000002e0: edff 12be 3260 eabc 1ed2 5d3e 16a9 36be
000002f0: e8ac 06bf ff12 7cbe 82ec 40be 4a03 0dbf
00000300: 2f2a 0fbe 1f67 2c3d 73f8 a23e d542 afbe
00000310: 74b0 41be 34a7 80bd 8ab6 ed3e 2bd9 ebbe
00000320: 984b a2be 356e 483e de6a 733e 284a d6bd
00000330: 70e4 d3bd f588 223e 0f5b a03e e409 04bc
00000340: 080b 2cbe ccc8 e33d 0ce3 f7bc 9fb1 c9be
00000350: 36f9 923e 37af bf3e b26e b0be ab40 ebbe
00000360: c5ad 1ebe 69d6 6e3e e377 9ebe 1e10 ab3e
00000370: 457a f9bd f206 743e 6a3b e5bb 1832 debe
00000380: 21d2 383e 8083 d43e 45d2 efbe 6cd1 dabe
00000390: 4a1e 6f3e 3925 4bbe bdff 913e 4699 893c
000003a0: 9a27 1fbf 865f 9cbe 6eff dabc 9827 9bbe
000003b0: c3a8 cf3e 2c3f 583d 0eb8 32bd bb90 cabd
000003c0: 44a3 5a3d 2994 89bd dcc0 b73e 5923 a0bd
000003d0: c56d 38be 448f 473e 6b93 a3bd 7e75 9e3e
000003e0: 2327 73be 50f3 f03c 461d 683e 77e8 dabe
000003f0: 8323 fd3d cc2f 8e3e 9d87 8dbd fab5 51be

linear2.bias f4 [3]
0.20082477 0.05536899 -0.019502735
00000000: 02a5 4d3e 98ca 623d 33c4 9fbc
